…
ict[int, bool], '_state_dict_hooks': typing.Dict[int, typing.Callable], '_load_state_dict_pre_hooks': typing.Dict[int, typing.Callable], '_state_dict_pre_hooks': typing.Dict[int, typing.Callable], '_load_state_dict_post_hooks': typing.Dict[int, typing.Callable], '_modules': typing.Dict[str, typing.Optional[ForwardRef('Module')]], 'call_super_init': <class 'bool'>, '_compiled_call_impl': typing.Optional[typing.Callable], 'forward': typing.Callable[..., typing.Any], '__call__': typing.Callable[..., typing.Any]}
__call__ True <bound method Module._wrapped_call_impl of Decoder(
  (token_embeddings): Embedding(101, 128)
  (position_embeddings): Embedding(5, 128)
  (layers): ModuleList(
    (0-1): 2 x Block(
      (ln_1): LayerNorm((128,), eps=1e-05, elementwise_affine=True)
      (ln_2): LayerNorm((128,), eps=1e-05, elementwise_affine=True)
      (attn): MultiheadAttention(
        (out_proj): NonDynamicallyQuantizableLinear(in_features=128, out_features=128, bias=True)
      )
      (mlp): Sequential(
        (0): Linear(in_features=128, out_features=512, bias=True)
        (1): GELU(approximate='none')
        (2): Linear(in_features=512, out_features=128, bias=True)
      )
    )
  )
  (ln_f): LayerNorm((128,), eps=1e-05, elementwise_affine=True)
  (head): Linear(in_features=128, out_features=101, bias=False)
)>
__class__ False <class 'model.Decoder'>
__delattr__ True <bound method Module.__delattr__ of Decoder(
  (token_embeddings): Embedding(101, 128)
  (position_embeddings): Embedding(5, 128)
  (layers): ModuleList(
    (0-1): 2 x Block(
      (ln_1): LayerNorm((128,), eps=1e-05, elementwise_affine=True)
      (ln_2): LayerNorm((128,), eps=1e-05, elementwise_affine=True)
      (attn): MultiheadAttention(
        (out_proj): NonDynamicallyQuantizableLinear(in_features=128, out_features=128, bias=True)
      )
      (mlp): Sequential(
        (0): Linear(in_features=128, out_features=512, bias=True)
        (1): GELU(approximate='none')
        (2): Linear(in_features=512, out_features=128, bias=True)
      )
    )
  )
  (ln_f): LayerNorm((128,), eps=1e-05, elementwise_affine=True)
  (head): Linear(in_features=128, out_features=101, bias=False)
)>
__dict__ False {'training': True, '_parameters': {}, '_buffers': {}, '_non_persistent_buffers_set': set(), '_backward_pre_hooks': OrderedDict(), '_backward_hooks': OrderedDict(), '_is_full_backward_hook': None, '_forward_hooks': OrderedDict(), '_forward_hooks_with_kwargs': OrderedDict(), '_forward_hooks_always_called': OrderedDict(), '_forward_pre_hooks': OrderedDict(), '_forward_pre_hooks_with_kwargs': OrderedDict(), '_state_dict_hooks': OrderedDict(), '_state_dict_pre_hooks': OrderedDict(), '_load_state_dict_pre_hooks': OrderedDict(), '_load_state_dict_post_hooks': OrderedDict(), '_modules': {'token_embeddings': Embedding(101, 128), 'position_embeddings': Embedding(5, 128), 'layers': ModuleList(
  (0-1): 2 x Block(
    (ln_1): LayerNorm((128,), eps=1e-05, elementwise_affine=True)
    (ln_2): LayerNorm((128,), eps=1e-05, elementwise_affine=True)
    (attn): MultiheadAttention(
      (out_proj): NonDynamicallyQuantizableLinear(in_features=128, out_features=128, bias=True)
    )
    (mlp): Sequential(
      (0): Linear(in_features=128, out_features=512, bias=True)
      (1): GELU(approximate='none')
      (2): Linear(in_features=512, out_features=128, bias=True)
    )
  )
), 'ln_f': LayerNorm((128,), eps=1e-05, elementwise_affine=True), 'head': Linear(in_features=128, out_features=101, bias=False)}}
__dir__ True <bound method Module.__dir__ of Decoder(
  (token_embeddings): Embedding(101, 128)
  (position_embeddings): Embedding(5, 128)
  (layers): ModuleList(
    (0-1): 2 x Block(
      (ln_1): LayerNorm((128,), eps=1e-05, elementwise_affine=True)
      (ln_2): LayerNorm((128,), eps=1e-05, elementwise_affine=True)
      (attn): MultiheadAttention(
        (out_proj): NonDynamicallyQuantizableLinear(in_features=128, out_features=128, bias=True)
      )
      (mlp): Sequential(
        (0): Linear(in_features=128, out_features=512, bias=True)
        (1): GELU(approximate='none')
        (2): Linear(in_features=512, out_features=128, bias=True)
      )
    )
  )
  (ln_f): LayerNorm((128,), eps=1e-05, elementwise_affine=True)
  (head): Linear(in_features=128, out_features=101, bias=False)
)>
__doc__ False Causal Transformer decoder
__eq__ False <method-wrapper '__eq__' of Decoder object at 0x748e3ccd2e00>
__format__ False <built-in method __format__ of Decoder object at 0x748e3ccd2e00>
__ge__ False <method-wrapper '__ge__' of Decoder object at 0x748e3ccd2e00>
__getattr__ True <bound method Module.__getattr__ of Decoder(
  (token_embeddings): Embedding(101, 128)
  (position_embeddings): Embedding(5, 128)
  (layers): ModuleList(
    (0-1): 2 x Block(
      (ln_1): LayerNorm((128,), eps=1e-05, elementwise_affine=True)
      (ln_2): LayerNorm((128,), eps=1e-05, elementwise_affine=True)
      (attn): MultiheadAttention(
        (out_proj): NonDynamicallyQuantizableLinear(in_features=128, out_features=128, bias=True)
      )
      (mlp): Sequential(
        (0): Linear(in_features=128, out_features=512, bias=True)
        (1): GELU(approximate='none')
        (2): Linear(in_features=512, out_features=128, bias=True)
      )
    )
  )
  (ln_f): LayerNorm((128,), eps=1e-05, elementwise_affine=True)
  (head): Linear(in_features=128, out_features=101, bias=False)
)>
__getattribute__ False <method-wrapper '__getattribute__' of Decoder object at 0x748e3ccd2e00>
__getstate__ True <bound method Module.__getstate__ of Decoder(
  (token_embeddings): Embedding(101, 128)
  (position_embeddings): Embedding(5, 128)
  (layers): ModuleList(
    (0-1): 2 x Block(
      (ln_1): LayerNorm((128,), eps=1e-05, elementwise_affine=True)
      (ln_2): LayerNorm((128,), eps=1e-05, elementwise_affine=True)
      (attn): MultiheadAttention(
        (out_proj): NonDynamicallyQuantizableLinear(in_features=128, out_features=128, bias=True)
      )
      (mlp): Sequential(
        (0): Linear(in_features=128, out_features=512, bias=True)
        (1): GELU(approximate='none')
        (2): Linear(in_features=512, out_features=128, bias=True)
      )
    )
  )
  (ln_f): LayerNorm((128,), eps=1e-05, elementwise_affine=True)
  (head): Linear(in_features=128, out_features=101, bias=False)
)>
__gt__ False <method-wrapper '__gt__' of Decoder object at 0x748e3ccd2e00>
__hash__ False <method-wrapper '__hash__' of Decoder object at 0x748e3ccd2e00>
__init__ True <bound method Decoder.__init__ of Decoder(
  (token_embeddings): Embedding(101, 128)
  (position_embeddings): Embedding(5, 128)
  (layers): ModuleList(
    (0-1): 2 x Block(
      (ln_1): LayerNorm((128,), eps=1e-05, elementwise_affine=True)
      (ln_2): LayerNorm((128,), eps=1e-05, elementwise_affine=True)
      (attn): MultiheadAttention(
        (out_proj): NonDynamicallyQuantizableLinear(in_features=128, out_features=128, bias=True)
      )
      (mlp): Sequential(
        (0): Linear(in_features=128, out_features=512, bias=True)
        (1): GELU(approximate='none')
        (2): Linear(in_features=512, out_features=128, bias=True)
      )
    )
  )
  (ln_f): LayerNorm((128,), eps=1e-05, elementwise_affine=True)
  (head): Linear(in_features=128, out_features=101, bias=False)
)>
__init_subclass__ False <built-in method __init_subclass__ of type object at 0x8ba4710>
__le__ False <method-wrapper '__le__' of Decoder object at 0x748e3ccd2e00>
__lt__ False <method-wrapper '__lt__' of Decoder object at 0x748e3ccd2e00>
__module__ False model
__ne__ False <method-wrapper '__ne__' of Decoder object at 0x748e3ccd2e00>
__new__ False <built-in method __new__ of type object at 0x745800>
__reduce__ False <built-in method __reduce__ of Decoder object at 0x748e3ccd2e00>
__reduce_ex__ False <built-in method __reduce_ex__ of Decoder object at 0x748e3ccd2e00>
__repr__ True <bound method Module.__repr__ of Decoder(
  (token_embeddings): Embedding(101, 128)
  (position_embeddings): Embedding(5, 128)
  (layers): ModuleList(
    (0-1): 2 x Block(
      (ln_1): LayerNorm((128,), eps=1e-05, elementwise_affine=True)
      (ln_2): LayerNorm((128,), eps=1e-05, elementwise_affine=True)
      (attn): MultiheadAttention(
        (out_proj): NonDynamicallyQuantizableLinear(in_features=128, out_features=128, bias=True)
      )
      (mlp): Sequential(
        (0): Linear(in_features=128, out_features=512, bias=True)
        (1): GELU(approximate='none')
        (2): Linear(in_features=512, out_features=128, bias=True)
      )
    )
  )
  (ln_f): LayerNorm((128,), eps=1e-05, elementwise_affine=True)
  (head): Linear(in_features=128, out_features=101, bias=False)
)>
__setattr__ True <bound method Module.__setattr__ of Decoder(
  (token_embeddings): Embedding(101, 128)
  (position_embeddings): Embedding(5, 128)
  (layers): ModuleList(
    (0-1): 2 x Block(
      (ln_1): LayerNorm((128,), eps=1e-05, elementwise_affine=True)
      (ln_2): LayerNorm((128,), eps=1e-05, elementwise_affine=True)
      (attn): MultiheadAttention(
        (out_proj): NonDynamicallyQuantizableLinear(in_features=128, out_features=128, bias=True)
      )
      (mlp): Sequential(
        (0): Linear(in_features=128, out_features=512, bias=True)
        (1): GELU(approximate='none')
        (2): Linear(in_features=512, out_features=128, bias=True)
      )
    )
  )
  (ln_f): LayerNorm((128,), eps=1e-05, elementwise_affine=True)
  (head): Linear(in_features=128, out_features=101, bias=False)
)>
__setstate__ True <bound method Module.__setstate__ of Decoder(
  (token_embeddings): Embedding(101, 128)
  (position_embeddings): Embedding(5, 128)
  (layers): ModuleList(
    (0-1): 2 x Block(
      (ln_1): LayerNorm((128,), eps=1e-05, elementwise_affine=True)
      (ln_2): LayerNorm((128,), eps=1e-05, elementwise_affine=True)
      (attn): MultiheadAttention(
        (out_proj): NonDynamicallyQuantizableLinear(in_features=128, out_features=128, bias=True)
      )
      (mlp): Sequential(
        (0): Linear(in_features=128, out_features=512, bias=True)
        (1): GELU(approximate='none')
        (2): Linear(in_features=512, out_features=128, bias=True)
      )
    )
  )
  (ln_f): LayerNorm((128,), eps=1e-05, elementwise_affine=True)
  (head): Linear(in_features=128, out_features=101, bias=False)
)>
__sizeof__ False <built-in method __sizeof__ of Decoder object at 0x748e3ccd2e00>
__str__ False <method-wrapper '__str__' of Decoder object at 0x748e3ccd2e00>
__subclasshook__ False <built-in method __subclasshook__ of type object at 0x8ba4710>
__weakref__ False None
_apply True <bound method Module._apply of Decoder(
  (token_embeddings): Embedding(101, 128)
  (position_embeddings): Embedding(5, 128)
  (layers): ModuleList(
    (0-1): 2 x Block(
      (ln_1): LayerNorm((128,), eps=1e-05, elementwise_affine=True)
      (ln_2): LayerNorm((128,), eps=1e-05, elementwise_affine=True)
      (attn): MultiheadAttention(
        (out_proj): NonDynamicallyQuantizableLinear(in_features=128, out_features=128, bias=True)
      )
      (mlp): Sequential(
        (0): Linear(in_features=128, out_features=512, bias=True)
        (1): GELU(approximate='none')
        (2): Linear(in_features=512, out_features=128, bias=True)
      )
    )
  )
  (ln_f): LayerNorm((128,), eps=1e-05, elementwise_affine=True)
  (head): Linear(in_features=128, out_features=101, bias=False)
)>
_backward_hooks False OrderedDict()
_backward_pre_hooks False OrderedDict()
_buffers False {}
_call_impl True <bound method Module._call_impl of Decoder(
  (token_embeddings): Embedding(101, 128)
  (position_embeddings): Embedding(5, 128)
  (layers): ModuleList(
    (0-1): 2 x Block(
      (ln_1): LayerNorm((128,), eps=1e-05, elementwise_affine=True)
      (ln_2): LayerNorm((128,), eps=1e-05, elementwise_affine=True)
      (attn): MultiheadAttention(
        (out_proj): NonDynamicallyQuantizableLinear(in_features=128, out_features=128, bias=True)
      )
      (mlp): Sequential(
        (0): Linear(in_features=128, out_features=512, bias=True)
        (1): GELU(approximate='none')
        (2): Linear(in_features=512, out_features=128, bias=True)
      )
    )
  )
  (ln_f): LayerNorm((128,), eps=1e-05, elementwise_affine=True)
  (head): Linear(in_features=128, out_features=101, bias=False)
)>
_compiled_call_impl False None
_forward_hooks False OrderedDict()
_forward_hooks_always_called False OrderedDict()
_forward_hooks_with_kwargs False OrderedDict()
_forward_pre_hooks False OrderedDict()
_forward_pre_hooks_with_kwargs False OrderedDict()
_get_backward_hooks True <bound method Module._get_backward_hooks of Decoder(
  (token_embeddings): Embedding(101, 128)
  (position_embeddings): Embedding(5, 128)
  (layers): ModuleList(
    (0-1): 2 x Block(
      (ln_1): LayerNorm((128,), eps=1e-05, elementwise_affine=True)
      (ln_2): LayerNorm((128,), eps=1e-05, elementwise_affine=True)
      (attn): MultiheadAttention(
        (out_proj): NonDynamicallyQuantizableLinear(in_features=128, out_features=128, bias=True)
      )
      (mlp): Sequential(
        (0): Linear(in_features=128, out_features=512, bias=True)
        (1): GELU(approximate='none')
        (2): Linear(in_features=512, out_features=128, bias=True)
      )
    )
  )
  (ln_f): LayerNorm((128,), eps=1e-05, elementwise_affine=True)
  (head): Linear(in_features=128, out_features=101, bias=False)
)>
_get_backward_pre_hooks True <bound method Module._get_backward_pre_hooks of Decoder(
  (token_embeddings): Embedding(101, 128)
  (position_embeddings): Embedding(5, 128)
  (layers): ModuleList(
    (0-1): 2 x Block(
      (ln_1): LayerNorm((128,), eps=1e-05, elementwise_affine=True)
      (ln_2): LayerNorm((128,), eps=1e-05, elementwise_affine=True)
      (attn): MultiheadAttention(
        (out_proj): NonDynamicallyQuantizableLinear(in_features=128, out_features=128, bias=True)
      )
      (mlp): Sequential(
        (0): Linear(in_features=128, out_features=512, bias=True)
        (1): GELU(approximate='none')
        (2): Linear(in_features=512, out_features=128, bias=True)
      )
    )
  )
  (ln_f): LayerNorm((128,), eps=1e-05, elementwise_affine=True)
  (head): Linear(in_features=128, out_features=101, bias=False)
)>
_get_name True <bound method Module._get_name of Decoder(
  (token_embeddings): Embedding(101, 128)
  (position_embeddings): Embedding(5, 128)
  (layers): ModuleList(
    (0-1): 2 x Block(
      (ln_1): LayerNorm((128,), eps=1e-05, elementwise_affine=True)
      (ln_2): LayerNorm((128,), eps=1e-05, elementwise_affine=True)
      (attn): MultiheadAttention(
        (out_proj): NonDynamicallyQuantizableLinear(in_features=128, out_features=128, bias=True)
      )
      (mlp): Sequential(
        (0): Linear(in_features=128, out_features=512, bias=True)
        (1): GELU(approximate='none')
        (2): Linear(in_features=512, out_features=128, bias=True)
      )
    )
  )
  (ln_f): LayerNorm((128,), eps=1e-05, elementwise_affine=True)
  (head): Linear(in_features=128, out_features=101, bias=False)
)>
_is_full_backward_hook False None
_load_from_state_dict True <bound method Module._load_from_state_dict of Decoder(
  (token_embeddings): Embedding(101, 128)
  (position_embeddings): Embedding(5, 128)
  (layers): ModuleList(
    (0-1): 2 x Block(
      (ln_1): LayerNorm((128,), eps=1e-05, elementwise_affine=True)
      (ln_2): LayerNorm((128,), eps=1e-05, elementwise_affine=True)
      (attn): MultiheadAttention(
        (out_proj): NonDynamicallyQuantizableLinear(in_features=128, out_features=128, bias=True)
      )
      (mlp): Sequential(
        (0): Linear(in_features=128, out_features=512, bias=True)
        (1): GELU(approximate='none')
        (2): Linear(in_features=512, out_features=128, bias=True)
      )
    )
  )
  (ln_f): LayerNorm((128,), eps=1e-05, elementwise_affine=True)
  (head): Linear(in_features=128, out_features=101, bias=False)
)>
_load_state_dict_post_hooks False OrderedDict()
_load_state_dict_pre_hooks False OrderedDict()
_maybe_warn_non_full_backward_hook True <bound method Module._maybe_warn_non_full_backward_hook of Decoder(
  (token_embeddings): Embedding(101, 128)
  (position_embeddings): Embedding(5, 128)
  (layers): ModuleList(
    (0-1): 2 x Block(
      (ln_1): LayerNorm((128,), eps=1e-05, elementwise_affine=True)
      (ln_2): LayerNorm((128,), eps=1e-05, elementwise_affine=True)
      (attn): MultiheadAttention(
        (out_proj): NonDynamicallyQuantizableLinear(in_features=128, out_features=128, bias=True)
      )
      (mlp): Sequential(
        (0): Linear(in_features=128, out_features=512, bias=True)
        (1): GELU(approximate='none')
        (2): Linear(in_features=512, out_features=128, bias=True)
      )
    )
  )
  (ln_f): LayerNorm((128,), eps=1e-05, elementwise_affine=True)
  (head): Linear(in_features=128, out_features=101, bias=False)
)>
_modules False {'token_embeddings': Embedding(101, 128), 'position_embeddings': Embedding(5, 128), 'layers': ModuleList(
  (0-1): 2 x Block(
    (ln_1): LayerNorm((128,), eps=1e-05, elementwise_affine=True)
    (ln_2): LayerNorm((128,), eps=1e-05, elementwise_affine=True)
    (attn): MultiheadAttention(
      (out_proj): NonDynamicallyQuantizableLinear(in_features=128, out_features=128, bias=True)
    )
    (mlp): Sequential(
      (0): Linear(in_features=128, out_features=512, bias=True)
      (1): GELU(approximate='none')
      (2): Linear(in_features=512, out_features=128, bias=True)
    )
  )
), 'ln_f': LayerNorm((128,), eps=1e-05, elementwise_affine=True), 'head': Linear(in_features=128, out_features=101, bias=False)}
_named_members True <bound method Module._named_members of Decoder(
  (token_embeddings): Embedding(101, 128)
  (position_embeddings): Embedding(5, 128)
  (layers): ModuleList(
    (0-1): 2 x Block(
      (ln_1): LayerNorm((128,), eps=1e-05, elementwise_affine=True)
      (ln_2): LayerNorm((128,), eps=1e-05, elementwise_affine=True)
      (attn): MultiheadAttention(
        (out_proj): NonDynamicallyQuantizableLinear(in_features=128, out_features=128, bias=True)
      )
      (mlp): Sequential(
        (0): Linear(in_features=128, out_features=512, bias=True)
        (1): GELU(approximate='none')
        (2): Linear(in_features=512, out_features=128, bias=True)
      )
    )
  )
  (ln_f): LayerNorm((128,), eps=1e-05, elementwise_affine=True)
  (head): Linear(in_features=128, out_features=101, bias=False)
)>
_non_persistent_buffers_set False set()
_parameters False {}
_register_load_state_dict_pre_hook True <bound method Module._register_load_state_dict_pre_hook of Decoder(
  (token_embeddings): Embedding(101, 128)
  (position_embeddings): Embedding(5, 128)
  (layers): ModuleList(
    (0-1): 2 x Block(
      (ln_1): LayerNorm((128,), eps=1e-05, elementwise_affine=True)
      (ln_2): LayerNorm((128,), eps=1e-05, elementwise_affine=True)
      (attn): MultiheadAttention(
        (out_proj): NonDynamicallyQuantizableLinear(in_features=128, out_features=128, bias=True)
      )
      (mlp): Sequential(
        (0): Linear(in_features=128, out_features=512, bias=True)
        (1): GELU(approximate='none')
        (2): Linear(in_features=512, out_features=128, bias=True)
      )
    )
  )
  (ln_f): LayerNorm((128,), eps=1e-05, elementwise_affine=True)
  (head): Linear(in_features=128, out_features=101, bias=False)
)>
_register_state_dict_hook True <bound method Module._register_state_dict_hook of Decoder(
  (token_embeddings): Embedding(101, 128)
  (position_embeddings): Embedding(5, 128)
  (layers): ModuleList(
    (0-1): 2 x Block(
      (ln_1): LayerNorm((128,), eps=1e-05, elementwise_affine=True)
      (ln_2): LayerNorm((128,), eps=1e-05, elementwise_affine=True)
      (attn): MultiheadAttention(
        (out_proj): NonDynamicallyQuantizableLinear(in_features=128, out_features=128, bias=True)
      )
      (mlp): Sequential(
        (0): Linear(in_features=128, out_features=512, bias=True)
        (1): GELU(approximate='none')
        (2): Linear(in_features=512, out_features=128, bias=True)
      )
    )
  )
  (ln_f): LayerNorm((128,), eps=1e-05, elementwise_affine=True)
  (head): Linear(in_features=128, out_features=101, bias=False)
)>
_replicate_for_data_parallel True <bound method Module._replicate_for_data_parallel of Decoder(
  (token_embeddings): Embedding(101, 128)
  (position_embeddings): Embedding(5, 128)
  (layers): ModuleList(
    (0-1): 2 x Block(
      (ln_1): LayerNorm((128,), eps=1e-05, elementwise_affine=True)
      (ln_2): LayerNorm((128,), eps=1e-05, elementwise_affine=True)
      (attn): MultiheadAttention(
        (out_proj): NonDynamicallyQuantizableLinear(in_features=128, out_features=128, bias=True)
      )
      (mlp): Sequential(
        (0): Linear(in_features=128, out_features=512, bias=True)
        (1): GELU(approximate='none')
        (2): Linear(in_features=512, out_features=128, bias=True)
      )
    )
  )
  (ln_f): LayerNorm((128,), eps=1e-05, elementwise_affine=True)
  (head): Linear(in_features=128, out_features=101, bias=False)
)>
_save_to_state_dict True <bound method Module._save_to_state_dict of Decoder(
  (token_embeddings): Embedding(101, 128)
  (position_embeddings): Embedding(5, 128)
  (layers): ModuleList(
    (0-1): 2 x Block(
      (ln_1): LayerNorm((128,), eps=1e-05, elementwise_affine=True)
      (ln_2): LayerNorm((128,), eps=1e-05, elementwise_affine=True)
      (attn): MultiheadAttention(
        (out_proj): NonDynamicallyQuantizableLinear(in_features=128, out_features=128, bias=True)
      )
      (mlp): Sequential(
        (0): Linear(in_features=128, out_features=512, bias=True)
        (1): GELU(approximate='none')
        (2): Linear(in_features=512, out_features=128, bias=True)
      )
    )
  )
  (ln_f): LayerNorm((128,), eps=1e-05, elementwise_affine=True)
  (head): Linear(in_features=128, out_features=101, bias=False)
)>
_slow_forward True <bound method Module._slow_forward of Decoder(
  (token_embeddings): Embedding(101, 128)
  (position_embeddings): Embedding(5, 128)
  (layers): ModuleList(
    (0-1): 2 x Block(
      (ln_1): LayerNorm((128,), eps=1e-05, elementwise_affine=True)
      (ln_2): LayerNorm((128,), eps=1e-05, elementwise_affine=True)
      (attn): MultiheadAttention(
        (out_proj): NonDynamicallyQuantizableLinear(in_features=128, out_features=128, bias=True)
      )
      (mlp): Sequential(
        (0): Linear(in_features=128, out_features=512, bias=True)
        (1): GELU(approximate='none')
        (2): Linear(in_features=512, out_features=128, bias=True)
      )
    )
  )
  (ln_f): LayerNorm((128,), eps=1e-05, elementwise_affine=True)
  (head): Linear(in_features=128, out_features=101, bias=False)
)>
_state_dict_hooks False OrderedDict()
_state_dict_pre_hooks False OrderedDict()
_version False 1
_wrapped_call_impl True <bound method Module._wrapped_call_impl of Decoder(
  (token_embeddings): Embedding(101, 128)
  (position_embeddings): Embedding(5, 128)
  (layers): ModuleList(
    (0-1): 2 x Block(
      (ln_1): LayerNorm((128,), eps=1e-05, elementwise_affine=True)
      (ln_2): LayerNorm((128,), eps=1e-05, elementwise_affine=True)
      (attn): MultiheadAttention(
        (out_proj): NonDynamicallyQuantizableLinear(in_features=128, out_features=128, bias=True)
      )
      (mlp): Sequential(
        (0): Linear(in_features=128, out_features=512, bias=True)
        (1): GELU(approximate='none')
        (2): Linear(in_features=512, out_features=128, bias=True)
      )
    )
  )
  (ln_f): LayerNorm((128,), eps=1e-05, elementwise_affine=True)
  (head): Linear(in_features=128, out_features=101, bias=False)
)>
add_module True <bound method Module.add_module of Decoder(
  (token_embeddings): Embedding(101, 128)
  (position_embeddings): Embedding(5, 128)
  (layers): ModuleList(
    (0-1): 2 x Block(
      (ln_1): LayerNorm((128,), eps=1e-05, elementwise_affine=True)
      (ln_2): LayerNorm((128,), eps=1e-05, elementwise_affine=True)
      (attn): MultiheadAttention(
        (out_proj): NonDynamicallyQuantizableLinear(in_features=128, out_features=128, bias=True)
      )
      (mlp): Sequential(
        (0): Linear(in_features=128, out_features=512, bias=True)
        (1): GELU(approximate='none')
        (2): Linear(in_features=512, out_features=128, bias=True)
      )
    )
  )
  (ln_f): LayerNorm((128,), eps=1e-05, elementwise_affine=True)
  (head): Linear(in_features=128, out_features=101, bias=False)
)>
apply True <bound method Module.apply of Decoder(
  (token_embeddings): Embedding(101, 128)
  (position_embeddings): Embedding(5, 128)
  (layers): ModuleList(
    (0-1): 2 x Block(
      (ln_1): LayerNorm((128,), eps=1e-05, elementwise_affine=True)
      (ln_2): LayerNorm((128,), eps=1e-05, elementwise_affine=True)
      (attn): MultiheadAttention(
        (out_proj): NonDynamicallyQuantizableLinear(in_features=128, out_features=128, bias=True)
      )
      (mlp): Sequential(
        (0): Linear(in_features=128, out_features=512, bias=True)
        (1): GELU(approximate='none')
        (2): Linear(in_features=512, out_features=128, bias=True)
      )
    )
  )
  (ln_f): LayerNorm((128,), eps=1e-05, elementwise_affine=True)
  (head): Linear(in_features=128, out_features=101, bias=False)
)>
bfloat16 True <bound method Module.bfloat16 of Decoder(
  (token_embeddings): Embedding(101, 128)
  (position_embeddings): Embedding(5, 128)
  (layers): ModuleList(
    (0-1): 2 x Block(
      (ln_1): LayerNorm((128,), eps=1e-05, elementwise_affine=True)
      (ln_2): LayerNorm((128,), eps=1e-05, elementwise_affine=True)
      (attn): MultiheadAttention(
        (out_proj): NonDynamicallyQuantizableLinear(in_features=128, out_features=128, bias=True)
      )
      (mlp): Sequential(
        (0): Linear(in_features=128, out_features=512, bias=True)
        (1): GELU(approximate='none')
        (2): Linear(in_features=512, out_features=128, bias=True)
      )
    )
  )
  (ln_f): LayerNorm((128,), eps=1e-05, elementwise_affine=True)
  (head): Linear(in_features=128, out_features=101, bias=False)
)>
buffers True <bound method Module.buffers of Decoder(
  (token_embeddings): Embedding(101, 128)
  (position_embeddings): Embedding(5, 128)
  (layers): ModuleList(
    (0-1): 2 x Block(
      (ln_1): LayerNorm((128,), eps=1e-05, elementwise_affine=True)
      (ln_2): LayerNorm((128,), eps=1e-05, elementwise_affine=True)
      (attn): MultiheadAttention(
        (out_proj): NonDynamicallyQuantizableLinear(in_features=128, out_features=128, bias=True)
      )
      (mlp): Sequential(
        (0): Linear(in_features=128, out_features=512, bias=True)
        (1): GELU(approximate='none')
        (2): Linear(in_features=512, out_features=128, bias=True)
      )
    )
  )
  (ln_f): LayerNorm((128,), eps=1e-05, elementwise_affine=True)
  (head): Linear(in_features=128, out_features=101, bias=False)
)>
call_super_init False False
children True <bound method Module.children of Decoder(
  (token_embeddings): Embedding(101, 128)
  (position_embeddings): Embedding(5, 128)
  (layers): ModuleList(
    (0-1): 2 x Block(
      (ln_1): LayerNorm((128,), eps=1e-05, elementwise_affine=True)
      (ln_2): LayerNorm((128,), eps=1e-05, elementwise_affine=True)
      (attn): MultiheadAttention(
        (out_proj): NonDynamicallyQuantizableLinear(in_features=128, out_features=128, bias=True)
      )
      (mlp): Sequential(
        (0): Linear(in_features=128, out_features=512, bias=True)
        (1): GELU(approximate='none')
        (2): Linear(in_features=512, out_features=128, bias=True)
      )
    )
  )
  (ln_f): LayerNorm((128,), eps=1e-05, elementwise_affine=True)
  (head): Linear(in_features=128, out_features=101, bias=False)
)>
compile True <bound method Module.compile of Decoder(
  (token_embeddings): Embedding(101, 128)
  (position_embeddings): Embedding(5, 128)
  (layers): ModuleList(
    (0-1): 2 x Block(
      (ln_1): LayerNorm((128,), eps=1e-05, elementwise_affine=True)
      (ln_2): LayerNorm((128,), eps=1e-05, elementwise_affine=True)
      (attn): MultiheadAttention(
        (out_proj): NonDynamicallyQuantizableLinear(in_features=128, out_features=128, bias=True)
      )
      (mlp): Sequential(
        (0): Linear(in_features=128, out_features=512, bias=True)
        (1): GELU(approximate='none')
        (2): Linear(in_features=512, out_features=128, bias=True)
      )
    )
  )
  (ln_f): LayerNorm((128,), eps=1e-05, elementwise_affine=True)
  (head): Linear(in_features=128, out_features=101, bias=False)
)>
cpu True <bound method Module.cpu of Decoder(
  (token_embeddings): Embedding(101, 128)
  (position_embeddings): Embedding(5, 128)
  (layers): ModuleList(
    (0-1): 2 x Block(
      (ln_1): LayerNorm((128,), eps=1e-05, elementwise_affine=True)
      (ln_2): LayerNorm((128,), eps=1e-05, elementwise_affine=True)
      (attn): MultiheadAttention(
        (out_proj): NonDynamicallyQuantizableLinear(in_features=128, out_features=128, bias=True)
      )
      (mlp): Sequential(
        (0): Linear(in_features=128, out_features=512, bias=True)
        (1): GELU(approximate='none')
        (2): Linear(in_features=512, out_features=128, bias=True)
      )
    )
  )
  (ln_f): LayerNorm((128,), eps=1e-05, elementwise_affine=True)
  (head): Linear(in_features=128, out_features=101, bias=False)
)>
cuda True <bound method Module.cuda of Decoder(
  (token_embeddings): Embedding(101, 128)
  (position_embeddings): Embedding(5, 128)
  (layers): ModuleList(
    (0-1): 2 x Block(
      (ln_1): LayerNorm((128,), eps=1e-05, elementwise_affine=True)
      (ln_2): LayerNorm((128,), eps=1e-05, elementwise_affine=True)
      (attn): MultiheadAttention(
        (out_proj): NonDynamicallyQuantizableLinear(in_features=128, out_features=128, bias=True)
      )
      (mlp): Sequential(
        (0): Linear(in_features=128, out_features=512, bias=True)
        (1): GELU(approximate='none')
        (2): Linear(in_features=512, out_features=128, bias=True)
      )
    )
  )
  (ln_f): LayerNorm((128,), eps=1e-05, elementwise_affine=True)
  (head): Linear(in_features=128, out_features=101, bias=False)
)>
double True <bound method Module.double of Decoder(
  (token_embeddings): Embedding(101, 128)
  (position_embeddings): Embedding(5, 128)
  (layers): ModuleList(
    (0-1): 2 x Block(
      (ln_1): LayerNorm((128,), eps=1e-05, elementwise_affine=True)
      (ln_2): LayerNorm((128,), eps=1e-05, elementwise_affine=True)
      (attn): MultiheadAttention(
        (out_proj): NonDynamicallyQuantizableLinear(in_features=128, out_features=128, bias=True)
      )
      (mlp): Sequential(
        (0): Linear(in_features=128, out_features=512, bias=True)
        (1): GELU(approximate='none')
        (2): Linear(in_features=512, out_features=128, bias=True)
      )
    )
  )
  (ln_f): LayerNorm((128,), eps=1e-05, elementwise_affine=True)
  (head): Linear(in_features=128, out_features=101, bias=False)
)>
dump_patches False False
eval True <bound method Module.eval of Decoder(
  (token_embeddings): Embedding(101, 128)
  (position_embeddings): Embedding(5, 128)
  (layers): ModuleList(
    (0-1): 2 x Block(
      (ln_1): LayerNorm((128,), eps=1e-05, elementwise_affine=True)
      (ln_2): LayerNorm((128,), eps=1e-05, elementwise_affine=True)
      (attn): MultiheadAttention(
        (out_proj): NonDynamicallyQuantizableLinear(in_features=128, out_features=128, bias=True)
      )
      (mlp): Sequential(
        (0): Linear(in_features=128, out_features=512, bias=True)
        (1): GELU(approximate='none')
        (2): Linear(in_features=512, out_features=128, bias=True)
      )
    )
  )
  (ln_f): LayerNorm((128,), eps=1e-05, elementwise_affine=True)
  (head): Linear(in_features=128, out_features=101, bias=False)
)>
extra_repr True <bound method Module.extra_repr of Decoder(
  (token_embeddings): Embedding(101, 128)
  (position_embeddings): Embedding(5, 128)
  (layers): ModuleList(
    (0-1): 2 x Block(
      (ln_1): LayerNorm((128,), eps=1e-05, elementwise_affine=True)
      (ln_2): LayerNorm((128,), eps=1e-05, elementwise_affine=True)
      (attn): MultiheadAttention(
        (out_proj): NonDynamicallyQuantizableLinear(in_features=128, out_features=128, bias=True)
      )
      (mlp): Sequential(
        (0): Linear(in_features=128, out_features=512, bias=True)
        (1): GELU(approximate='none')
        (2): Linear(in_features=512, out_features=128, bias=True)
      )
    )
  )
  (ln_f): LayerNorm((128,), eps=1e-05, elementwise_affine=True)
  (head): Linear(in_features=128, out_features=101, bias=False)
)>
float True <bound method Module.float of Decoder(
  (token_embeddings): Embedding(101, 128)
  (position_embeddings): Embedding(5, 128)
  (layers): ModuleList(
    (0-1): 2 x Block(
      (ln_1): LayerNorm((128,), eps=1e-05, elementwise_affine=True)
      (ln_2): LayerNorm((128,), eps=1e-05, elementwise_affine=True)
      (attn): MultiheadAttention(
        (out_proj): NonDynamicallyQuantizableLinear(in_features=128, out_features=128, bias=True)
      )
      (mlp): Sequential(
        (0): Linear(in_features=128, out_features=512, bias=True)
        (1): GELU(approximate='none')
        (2): Linear(in_features=512, out_features=128, bias=True)
      )
    )
  )
  (ln_f): LayerNorm((128,), eps=1e-05, elementwise_affine=True)
  (head): Linear(in_features=128, out_features=101, bias=False)
)>
forward True <bound method Decoder.forward of Decoder(
  (token_embeddings): Embedding(101, 128)
  (position_embeddings): Embedding(5, 128)
  (layers): ModuleList(
    (0-1): 2 x Block(
      (ln_1): LayerNorm((128,), eps=1e-05, elementwise_affine=True)
      (ln_2): LayerNorm((128,), eps=1e-05, elementwise_affine=True)
      (attn): MultiheadAttention(
        (out_proj): NonDynamicallyQuantizableLinear(in_features=128, out_features=128, bias=True)
      )
      (mlp): Sequential(
        (0): Linear(in_features=128, out_features=512, bias=True)
        (1): GELU(approximate='none')
        (2): Linear(in_features=512, out_features=128, bias=True)
      )
    )
  )
  (ln_f): LayerNorm((128,), eps=1e-05, elementwise_affine=True)
  (head): Linear(in_features=128, out_features=101, bias=False)
)>
get_buffer True <bound method Module.get_buffer of Decoder(
  (token_embeddings): Embedding(101, 128)
  (position_embeddings): Embedding(5, 128)
  (layers): ModuleList(
    (0-1): 2 x Block(
      (ln_1): LayerNorm((128,), eps=1e-05, elementwise_affine=True)
      (ln_2): LayerNorm((128,), eps=1e-05, elementwise_affine=True)
      (attn): MultiheadAttention(
        (out_proj): NonDynamicallyQuantizableLinear(in_features=128, out_features=128, bias=True)
      )
      (mlp): Sequential(
        (0): Linear(in_features=128, out_features=512, bias=True)
        (1): GELU(approximate='none')
        (2): Linear(in_features=512, out_features=128, bias=True)
      )
    )
  )
  (ln_f): LayerNorm((128,), eps=1e-05, elementwise_affine=True)
  (head): Linear(in_features=128, out_features=101, bias=False)
)>
get_extra_state True <bound method Module.get_extra_state of Decoder(
  (token_embeddings): Embedding(101, 128)
  (position_embeddings): Embedding(5, 128)
  (layers): ModuleList(
    (0-1): 2 x Block(
      (ln_1): LayerNorm((128,), eps=1e-05, elementwise_affine=True)
      (ln_2): LayerNorm((128,), eps=1e-05, elementwise_affine=True)
      (attn): MultiheadAttention(
        (out_proj): NonDynamicallyQuantizableLinear(in_features=128, out_features=128, bias=True)
      )
      (mlp): Sequential(
        (0): Linear(in_features=128, out_features=512, bias=True)
        (1): GELU(approximate='none')
        (2): Linear(in_features=512, out_features=128, bias=True)
      )
    )
  )
  (ln_f): LayerNorm((128,), eps=1e-05, elementwise_affine=True)
  (head): Linear(in_features=128, out_features=101, bias=False)
)>
get_parameter True <bound method Module.get_parameter of Decoder(
  (token_embeddings): Embedding(101, 128)
  (position_embeddings): Embedding(5, 128)
  (layers): ModuleList(
    (0-1): 2 x Block(
      (ln_1): LayerNorm((128,), eps=1e-05, elementwise_affine=True)
      (ln_2): LayerNorm((128,), eps=1e-05, elementwise_affine=True)
      (attn): MultiheadAttention(
        (out_proj): NonDynamicallyQuantizableLinear(in_features=128, out_features=128, bias=True)
      )
      (mlp): Sequential(
        (0): Linear(in_features=128, out_features=512, bias=True)
        (1): GELU(approximate='none')
        (2): Linear(in_features=512, out_features=128, bias=True)
      )
    )
  )
  (ln_f): LayerNorm((128,), eps=1e-05, elementwise_affine=True)
  (head): Linear(in_features=128, out_features=101, bias=False)
)>
get_submodule True <bound method Module.get_submodule of Decoder(
  (token_embeddings): Embedding(101, 128)
  (position_embeddings): Embedding(5, 128)
  (layers): ModuleList(
    (0-1): 2 x Block(
      (ln_1): LayerNorm((128,), eps=1e-05, elementwise_affine=True)
      (ln_2): LayerNorm((128,), eps=1e-05, elementwise_affine=True)
      (attn): MultiheadAttention(
        (out_proj): NonDynamicallyQuantizableLinear(in_features=128, out_features=128, bias=True)
      )
      (mlp): Sequential(
        (0): Linear(in_features=128, out_features=512, bias=True)
        (1): GELU(approximate='none')
        (2): Linear(in_features=512, out_features=128, bias=True)
      )
    )
  )
  (ln_f): LayerNorm((128,), eps=1e-05, elementwise_affine=True)
  (head): Linear(in_features=128, out_features=101, bias=False)
)>
half True <bound method Module.half of Decoder(
  (token_embeddings): Embedding(101, 128)
  (position_embeddings): Embedding(5, 128)
  (layers): ModuleList(
    (0-1): 2 x Block(
      (ln_1): LayerNorm((128,), eps=1e-05, elementwise_affine=True)
      (ln_2): LayerNorm((128,), eps=1e-05, elementwise_affine=True)
      (attn): MultiheadAttention(
        (out_proj): NonDynamicallyQuantizableLinear(in_features=128, out_features=128, bias=True)
      )
      (mlp): Sequential(
        (0): Linear(in_features=128, out_features=512, bias=True)
        (1): GELU(approximate='none')
        (2): Linear(in_features=512, out_features=128, bias=True)
      )
    )
  )
  (ln_f): LayerNorm((128,), eps=1e-05, elementwise_affine=True)
  (head): Linear(in_features=128, out_features=101, bias=False)
)>
head False Linear(in_features=128, out_features=101, bias=False)
ipu True <bound method Module.ipu of Decoder(
  (token_embeddings): Embedding(101, 128)
  (position_embeddings): Embedding(5, 128)
  (layers): ModuleList(
    (0-1): 2 x Block(
      (ln_1): LayerNorm((128,), eps=1e-05, elementwise_affine=True)
      (ln_2): LayerNorm((128,), eps=1e-05, elementwise_affine=True)
      (attn): MultiheadAttention(
        (out_proj): NonDynamicallyQuantizableLinear(in_features=128, out_features=128, bias=True)
      )
      (mlp): Sequential(
        (0): Linear(in_features=128, out_features=512, bias=True)
        (1): GELU(approximate='none')
        (2): Linear(in_features=512, out_features=128, bias=True)
      )
    )
  )
  (ln_f): LayerNorm((128,), eps=1e-05, elementwise_affine=True)
  (head): Linear(in_features=128, out_features=101, bias=False)
)>
layers False ModuleList(
  (0-1): 2 x Block(
    (ln_1): LayerNorm((128,), eps=1e-05, elementwise_affine=True)
    (ln_2): LayerNorm((128,), eps=1e-05, elementwise_affine=True)
    (attn): MultiheadAttention(
      (out_proj): NonDynamicallyQuantizableLinear(in_features=128, out_features=128, bias=True)
    )
    (mlp): Sequential(
      (0): Linear(in_features=128, out_features=512, bias=True)
      (1): GELU(approximate='none')
      (2): Linear(in_features=512, out_features=128, bias=True)
    )
  )
)
ln_f False LayerNorm((128,), eps=1e-05, elementwise_affine=True)
load_state_dict True <bound method Module.load_state_dict of Decoder(
  (token_embeddings): Embedding(101, 128)
  (position_embeddings): Embedding(5, 128)
  (layers): ModuleList(
    (0-1): 2 x Block(
      (ln_1): LayerNorm((128,), eps=1e-05, elementwise_affine=True)
      (ln_2): LayerNorm((128,), eps=1e-05, elementwise_affine=True)
      (attn): MultiheadAttention(
        (out_proj): NonDynamicallyQuantizableLinear(in_features=128, out_features=128, bias=True)
      )
      (mlp): Sequential(
        (0): Linear(in_features=128, out_features=512, bias=True)
        (1): GELU(approximate='none')
        (2): Linear(in_features=512, out_features=128, bias=True)
      )
    )
  )
  (ln_f): LayerNorm((128,), eps=1e-05, elementwise_affine=True)
  (head): Linear(in_features=128, out_features=101, bias=False)
)>
modules True <bound method Module.modules of Decoder(
  (token_embeddings): Embedding(101, 128)
  (position_embeddings): Embedding(5, 128)
  (layers): ModuleList(
    (0-1): 2 x Block(
      (ln_1): LayerNorm((128,), eps=1e-05, elementwise_affine=True)
      (ln_2): LayerNorm((128,), eps=1e-05, elementwise_affine=True)
      (attn): MultiheadAttention(
        (out_proj): NonDynamicallyQuantizableLinear(in_features=128, out_features=128, bias=True)
      )
      (mlp): Sequential(
        (0): Linear(in_features=128, out_features=512, bias=True)
        (1): GELU(approximate='none')
        (2): Linear(in_features=512, out_features=128, bias=True)
      )
    )
  )
  (ln_f): LayerNorm((128,), eps=1e-05, elementwise_affine=True)
  (head): Linear(in_features=128, out_features=101, bias=False)
)>
mtia True <bound method Module.mtia of Decoder(
  (token_embeddings): Embedding(101, 128)
  (position_embeddings): Embedding(5, 128)
  (layers): ModuleList(
    (0-1): 2 x Block(
      (ln_1): LayerNorm((128,), eps=1e-05, elementwise_affine=True)
      (ln_2): LayerNorm((128,), eps=1e-05, elementwise_affine=True)
      (attn): MultiheadAttention(
        (out_proj): NonDynamicallyQuantizableLinear(in_features=128, out_features=128, bias=True)
      )
      (mlp): Sequential(
        (0): Linear(in_features=128, out_features=512, bias=True)
        (1): GELU(approximate='none')
        (2): Linear(in_features=512, out_features=128, bias=True)
      )
    )
  )
  (ln_f): LayerNorm((128,), eps=1e-05, elementwise_affine=True)
  (head): Linear(in_features=128, out_features=101, bias=False)
)>
named_buffers True <bound method Module.named_buffers of Decoder(
  (token_embeddings): Embedding(101, 128)
  (position_embeddings): Embedding(5, 128)
  (layers): ModuleList(
    (0-1): 2 x Block(
      (ln_1): LayerNorm((128,), eps=1e-05, elementwise_affine=True)
      (ln_2): LayerNorm((128,), eps=1e-05, elementwise_affine=True)
      (attn): MultiheadAttention(
        (out_proj): NonDynamicallyQuantizableLinear(in_features=128, out_features=128, bias=True)
      )
      (mlp): Sequential(
        (0): Linear(in_features=128, out_features=512, bias=True)
        (1): GELU(approximate='none')
        (2): Linear(in_features=512, out_features=128, bias=True)
      )
    )
  )
  (ln_f): LayerNorm((128,), eps=1e-05, elementwise_affine=True)
  (head): Linear(in_features=128, out_features=101, bias=False)
)>
named_children True <bound method Module.named_children of Decoder(
  (token_embeddings): Embedding(101, 128)
  (position_embeddings): Embedding(5, 128)
  (layers): ModuleList(
    (0-1): 2 x Block(
      (ln_1): LayerNorm((128,), eps=1e-05, elementwise_affine=True)
      (ln_2): LayerNorm((128,), eps=1e-05, elementwise_affine=True)
      (attn): MultiheadAttention(
        (out_proj): NonDynamicallyQuantizableLinear(in_features=128, out_features=128, bias=True)
      )
      (mlp): Sequential(
        (0): Linear(in_features=128, out_features=512, bias=True)
        (1): GELU(approximate='none')
        (2): Linear(in_features=512, out_features=128, bias=True)
      )
    )
  )
  (ln_f): LayerNorm((128,), eps=1e-05, elementwise_affine=True)
  (head): Linear(in_features=128, out_features=101, bias=False)
)>
named_modules True <bound method Module.named_modules of Decoder(
  (token_embeddings): Embedding(101, 128)
  (position_embeddings): Embedding(5, 128)
  (layers): ModuleList(
    (0-1): 2 x Block(
      (ln_1): LayerNorm((128,), eps=1e-05, elementwise_affine=True)
      (ln_2): LayerNorm((128,), eps=1e-05, elementwise_affine=True)
      (attn): MultiheadAttention(
        (out_proj): NonDynamicallyQuantizableLinear(in_features=128, out_features=128, bias=True)
      )
      (mlp): Sequential(
        (0): Linear(in_features=128, out_features=512, bias=True)
        (1): GELU(approximate='none')
        (2): Linear(in_features=512, out_features=128, bias=True)
      )
    )
  )
  (ln_f): LayerNorm((128,), eps=1e-05, elementwise_affine=True)
  (head): Linear(in_features=128, out_features=101, bias=False)
)>
named_parameters True <bound method Module.named_parameters of Decoder(
  (token_embeddings): Embedding(101, 128)
  (position_embeddings): Embedding(5, 128)
  (layers): ModuleList(
    (0-1): 2 x Block(
      (ln_1): LayerNorm((128,), eps=1e-05, elementwise_affine=True)
      (ln_2): LayerNorm((128,), eps=1e-05, elementwise_affine=True)
      (attn): MultiheadAttention(
        (out_proj): NonDynamicallyQuantizableLinear(in_features=128, out_features=128, bias=True)
      )
      (mlp): Sequential(
        (0): Linear(in_features=128, out_features=512, bias=True)
        (1): GELU(approximate='none')
        (2): Linear(in_features=512, out_features=128, bias=True)
      )
    )
  )
  (ln_f): LayerNorm((128,), eps=1e-05, elementwise_affine=True)
  (head): Linear(in_features=128, out_features=101, bias=False)
)>
parameters True <bound method Module.parameters of Decoder(
  (token_embeddings): Embedding(101, 128)
  (position_embeddings): Embedding(5, 128)
  (layers): ModuleList(
    (0-1): 2 x Block(
      (ln_1): LayerNorm((128,), eps=1e-05, elementwise_affine=True)
      (ln_2): LayerNorm((128,), eps=1e-05, elementwise_affine=True)
      (attn): MultiheadAttention(
        (out_proj): NonDynamicallyQuantizableLinear(in_features=128, out_features=128, bias=True)
      )
      (mlp): Sequential(
        (0): Linear(in_features=128, out_features=512, bias=True)
        (1): GELU(approximate='none')
        (2): Linear(in_features=512, out_features=128, bias=True)
      )
    )
  )
  (ln_f): LayerNorm((128,), eps=1e-05, elementwise_affine=True)
  (head): Linear(in_features=128, out_features=101, bias=False)
)>
position_embeddings False Embedding(5, 128)
register_backward_hook True <bound method Module.register_backward_hook of Decoder(
  (token_embeddings): Embedding(101, 128)
  (position_embeddings): Embedding(5, 128)
  (layers): ModuleList(
    (0-1): 2 x Block(
      (ln_1): LayerNorm((128,), eps=1e-05, elementwise_affine=True)
      (ln_2): LayerNorm((128,), eps=1e-05, elementwise_affine=True)
      (attn): MultiheadAttention(
        (out_proj): NonDynamicallyQuantizableLinear(in_features=128, out_features=128, bias=True)
      )
      (mlp): Sequential(
        (0): Linear(in_features=128, out_features=512, bias=True)
        (1): GELU(approximate='none')
        (2): Linear(in_features=512, out_features=128, bias=True)
      )
    )
  )
  (ln_f): LayerNorm((128,), eps=1e-05, elementwise_affine=True)
  (head): Linear(in_features=128, out_features=101, bias=False)
)>
register_buffer True <bound method Module.register_buffer of Decoder(
  (token_embeddings): Embedding(101, 128)
  (position_embeddings): Embedding(5, 128)
  (layers): ModuleList(
    (0-1): 2 x Block(
      (ln_1): LayerNorm((128,), eps=1e-05, elementwise_affine=True)
      (ln_2): LayerNorm((128,), eps=1e-05, elementwise_affine=True)
      (attn): MultiheadAttention(
        (out_proj): NonDynamicallyQuantizableLinear(in_features=128, out_features=128, bias=True)
      )
      (mlp): Sequential(
        (0): Linear(in_features=128, out_features=512, bias=True)
        (1): GELU(approximate='none')
        (2): Linear(in_features=512, out_features=128, bias=True)
      )
    )
  )
  (ln_f): LayerNorm((128,), eps=1e-05, elementwise_affine=True)
  (head): Linear(in_features=128, out_features=101, bias=False)
)>
register_forward_hook True <bound method Module.register_forward_hook of Decoder(
  (token_embeddings): Embedding(101, 128)
  (position_embeddings): Embedding(5, 128)
  (layers): ModuleList(
    (0-1): 2 x Block(
      (ln_1): LayerNorm((128,), eps=1e-05, elementwise_affine=True)
      (ln_2): LayerNorm((128,), eps=1e-05, elementwise_affine=True)
      (attn): MultiheadAttention(
        (out_proj): NonDynamicallyQuantizableLinear(in_features=128, out_features=128, bias=True)
      )
      (mlp): Sequential(
        (0): Linear(in_features=128, out_features=512, bias=True)
        (1): GELU(approximate='none')
        (2): Linear(in_features=512, out_features=128, bias=True)
      )
    )
  )
  (ln_f): LayerNorm((128,), eps=1e-05, elementwise_affine=True)
  (head): Linear(in_features=128, out_features=101, bias=False)
)>
register_forward_pre_hook True <bound method Module.register_forward_pre_hook of Decoder(
  (token_embeddings): Embedding(101, 128)
  (position_embeddings): Embedding(5, 128)
  (layers): ModuleList(
    (0-1): 2 x Block(
      (ln_1): LayerNorm((128,), eps=1e-05, elementwise_affine=True)
      (ln_2): LayerNorm((128,), eps=1e-05, elementwise_affine=True)
      (attn): MultiheadAttention(
        (out_proj): NonDynamicallyQuantizableLinear(in_features=128, out_features=128, bias=True)
      )
      (mlp): Sequential(
        (0): Linear(in_features=128, out_features=512, bias=True)
        (1): GELU(approximate='none')
        (2): Linear(in_features=512, out_features=128, bias=True)
      )
    )
  )
  (ln_f): LayerNorm((128,), eps=1e-05, elementwise_affine=True)
  (head): Linear(in_features=128, out_features=101, bias=False)
)>
register_full_backward_hook True <bound method Module.register_full_backward_hook of Decoder(
  (token_embeddings): Embedding(101, 128)
  (position_embeddings): Embedding(5, 128)
  (layers): ModuleList(
    (0-1): 2 x Block(
      (ln_1): LayerNorm((128,), eps=1e-05, elementwise_affine=True)
      (ln_2): LayerNorm((128,), eps=1e-05, elementwise_affine=True)
      (attn): MultiheadAttention(
        (out_proj): NonDynamicallyQuantizableLinear(in_features=128, out_features=128, bias=True)
      )
      (mlp): Sequential(
        (0): Linear(in_features=128, out_features=512, bias=True)
        (1): GELU(approximate='none')
        (2): Linear(in_features=512, out_features=128, bias=True)
      )
    )
  )
  (ln_f): LayerNorm((128,), eps=1e-05, elementwise_affine=True)
  (head): Linear(in_features=128, out_features=101, bias=False)
)>
register_full_backward_pre_hook True <bound method Module.register_full_backward_pre_hook of Decoder(
  (token_embeddings): Embedding(101, 128)
  (position_embeddings): Embedding(5, 128)
  (layers): ModuleList(
    (0-1): 2 x Block(
      (ln_1): LayerNorm((128,), eps=1e-05, elementwise_affine=True)
      (ln_2): LayerNorm((128,), eps=1e-05, elementwise_affine=True)
      (attn): MultiheadAttention(
        (out_proj): NonDynamicallyQuantizableLinear(in_features=128, out_features=128, bias=True)
      )
      (mlp): Sequential(
        (0): Linear(in_features=128, out_features=512, bias=True)
        (1): GELU(approximate='none')
        (2): Linear(in_features=512, out_features=128, bias=True)
      )
    )
  )
  (ln_f): LayerNorm((128,), eps=1e-05, elementwise_affine=True)
  (head): Linear(in_features=128, out_features=101, bias=False)
)>
register_load_state_dict_post_hook True <bound method Module.register_load_state_dict_post_hook of Decoder(
  (token_embeddings): Embedding(101, 128)
  (position_embeddings): Embedding(5, 128)
  (layers): ModuleList(
    (0-1): 2 x Block(
      (ln_1): LayerNorm((128,), eps=1e-05, elementwise_affine=True)
      (ln_2): LayerNorm((128,), eps=1e-05, elementwise_affine=True)
      (attn): MultiheadAttention(
        (out_proj): NonDynamicallyQuantizableLinear(in_features=128, out_features=128, bias=True)
      )
      (mlp): Sequential(
        (0): Linear(in_features=128, out_features=512, bias=True)
        (1): GELU(approximate='none')
        (2): Linear(in_features=512, out_features=128, bias=True)
      )
    )
  )
  (ln_f): LayerNorm((128,), eps=1e-05, elementwise_affine=True)
  (head): Linear(in_features=128, out_features=101, bias=False)
)>
register_load_state_dict_pre_hook True <bound method Module.register_load_state_dict_pre_hook of Decoder(
  (token_embeddings): Embedding(101, 128)
  (position_embeddings): Embedding(5, 128)
  (layers): ModuleList(
    (0-1): 2 x Block(
      (ln_1): LayerNorm((128,), eps=1e-05, elementwise_affine=True)
      (ln_2): LayerNorm((128,), eps=1e-05, elementwise_affine=True)
      (attn): MultiheadAttention(
        (out_proj): NonDynamicallyQuantizableLinear(in_features=128, out_features=128, bias=True)
      )
      (mlp): Sequential(
        (0): Linear(in_features=128, out_features=512, bias=True)
        (1): GELU(approximate='none')
        (2): Linear(in_features=512, out_features=128, bias=True)
      )
    )
  )
  (ln_f): LayerNorm((128,), eps=1e-05, elementwise_affine=True)
  (head): Linear(in_features=128, out_features=101, bias=False)
)>
register_module True <bound method Module.register_module of Decoder(
  (token_embeddings): Embedding(101, 128)
  (position_embeddings): Embedding(5, 128)
  (layers): ModuleList(
    (0-1): 2 x Block(
      (ln_1): LayerNorm((128,), eps=1e-05, elementwise_affine=True)
      (ln_2): LayerNorm((128,), eps=1e-05, elementwise_affine=True)
      (attn): MultiheadAttention(
        (out_proj): NonDynamicallyQuantizableLinear(in_features=128, out_features=128, bias=True)
      )
      (mlp): Sequential(
        (0): Linear(in_features=128, out_features=512, bias=True)
        (1): GELU(approximate='none')
        (2): Linear(in_features=512, out_features=128, bias=True)
      )
    )
  )
  (ln_f): LayerNorm((128,), eps=1e-05, elementwise_affine=True)
  (head): Linear(in_features=128, out_features=101, bias=False)
)>
register_parameter True <bound method Module.register_parameter of Decoder(
  (token_embeddings): Embedding(101, 128)
  (position_embeddings): Embedding(5, 128)
  (layers): ModuleList(
    (0-1): 2 x Block(
      (ln_1): LayerNorm((128,), eps=1e-05, elementwise_affine=True)
      (ln_2): LayerNorm((128,), eps=1e-05, elementwise_affine=True)
      (attn): MultiheadAttention(
        (out_proj): NonDynamicallyQuantizableLinear(in_features=128, out_features=128, bias=True)
      )
      (mlp): Sequential(
        (0): Linear(in_features=128, out_features=512, bias=True)
        (1): GELU(approximate='none')
        (2): Linear(in_features=512, out_features=128, bias=True)
      )
    )
  )
  (ln_f): LayerNorm((128,), eps=1e-05, elementwise_affine=True)
  (head): Linear(in_features=128, out_features=101, bias=False)
)>
register_state_dict_post_hook True <bound method Module.register_state_dict_post_hook of Decoder(
  (token_embeddings): Embedding(101, 128)
  (position_embeddings): Embedding(5, 128)
  (layers): ModuleList(
    (0-1): 2 x Block(
      (ln_1): LayerNorm((128,), eps=1e-05, elementwise_affine=True)
      (ln_2): LayerNorm((128,), eps=1e-05, elementwise_affine=True)
      (attn): MultiheadAttention(
        (out_proj): NonDynamicallyQuantizableLinear(in_features=128, out_features=128, bias=True)
      )
      (mlp): Sequential(
        (0): Linear(in_features=128, out_features=512, bias=True)
        (1): GELU(approximate='none')
        (2): Linear(in_features=512, out_features=128, bias=True)
      )
    )
  )
  (ln_f): LayerNorm((128,), eps=1e-05, elementwise_affine=True)
  (head): Linear(in_features=128, out_features=101, bias=False)
)>
register_state_dict_pre_hook True <bound method Module.register_state_dict_pre_hook of Decoder(
  (token_embeddings): Embedding(101, 128)
  (position_embeddings): Embedding(5, 128)
  (layers): ModuleList(
    (0-1): 2 x Block(
      (ln_1): LayerNorm((128,), eps=1e-05, elementwise_affine=True)
      (ln_2): LayerNorm((128,), eps=1e-05, elementwise_affine=True)
      (attn): MultiheadAttention(
        (out_proj): NonDynamicallyQuantizableLinear(in_features=128, out_features=128, bias=True)
      )
      (mlp): Sequential(
        (0): Linear(in_features=128, out_features=512, bias=True)
        (1): GELU(approximate='none')
        (2): Linear(in_features=512, out_features=128, bias=True)
      )
    )
  )
  (ln_f): LayerNorm((128,), eps=1e-05, elementwise_affine=True)
  (head): Linear(in_features=128, out_features=101, bias=False)
)>
requires_grad_ True <bound method Module.requires_grad_ of Decoder(
  (token_embeddings): Embedding(101, 128)
  (position_embeddings): Embedding(5, 128)
  (layers): ModuleList(
    (0-1): 2 x Block(
      (ln_1): LayerNorm((128,), eps=1e-05, elementwise_affine=True)
      (ln_2): LayerNorm((128,), eps=1e-05, elementwise_affine=True)
      (attn): MultiheadAttention(
        (out_proj): NonDynamicallyQuantizableLinear(in_features=128, out_features=128, bias=True)
      )
      (mlp): Sequential(
        (0): Linear(in_features=128, out_features=512, bias=True)
        (1): GELU(approximate='none')
        (2): Linear(in_features=512, out_features=128, bias=True)
      )
    )
  )
  (ln_f): LayerNorm((128,), eps=1e-05, elementwise_affine=True)
  (head): Linear(in_features=128, out_features=101, bias=False)
)>
set_extra_state True <bound method Module.set_extra_state of Decoder(
  (token_embeddings): Embedding(101, 128)
  (position_embeddings): Embedding(5, 128)
  (layers): ModuleList(
    (0-1): 2 x Block(
      (ln_1): LayerNorm((128,), eps=1e-05, elementwise_affine=True)
      (ln_2): LayerNorm((128,), eps=1e-05, elementwise_affine=True)
      (attn): MultiheadAttention(
        (out_proj): NonDynamicallyQuantizableLinear(in_features=128, out_features=128, bias=True)
      )
      (mlp): Sequential(
        (0): Linear(in_features=128, out_features=512, bias=True)
        (1): GELU(approximate='none')
        (2): Linear(in_features=512, out_features=128, bias=True)
      )
    )
  )
  (ln_f): LayerNorm((128,), eps=1e-05, elementwise_affine=True)
  (head): Linear(in_features=128, out_features=101, bias=False)
)>
set_submodule True <bound method Module.set_submodule of Decoder(
  (token_embeddings): Embedding(101, 128)
  (position_embeddings): Embedding(5, 128)
  (layers): ModuleList(
    (0-1): 2 x Block(
      (ln_1): LayerNorm((128,), eps=1e-05, elementwise_affine=True)
      (ln_2): LayerNorm((128,), eps=1e-05, elementwise_affine=True)
      (attn): MultiheadAttention(
        (out_proj): NonDynamicallyQuantizableLinear(in_features=128, out_features=128, bias=True)
      )
      (mlp): Sequential(
        (0): Linear(in_features=128, out_features=512, bias=True)
        (1): GELU(approximate='none')
        (2): Linear(in_features=512, out_features=128, bias=True)
      )
    )
  )
  (ln_f): LayerNorm((128,), eps=1e-05, elementwise_affine=True)
  (head): Linear(in_features=128, out_features=101, bias=False)
)>
share_memory True <bound method Module.share_memory of Decoder(
  (token_embeddings): Embedding(101, 128)
  (position_embeddings): Embedding(5, 128)
  (layers): ModuleList(
    (0-1): 2 x Block(
      (ln_1): LayerNorm((128,), eps=1e-05, elementwise_affine=True)
      (ln_2): LayerNorm((128,), eps=1e-05, elementwise_affine=True)
      (attn): MultiheadAttention(
        (out_proj): NonDynamicallyQuantizableLinear(in_features=128, out_features=128, bias=True)
      )
      (mlp): Sequential(
        (0): Linear(in_features=128, out_features=512, bias=True)
        (1): GELU(approximate='none')
        (2): Linear(in_features=512, out_features=128, bias=True)
      )
    )
  )
  (ln_f): LayerNorm((128,), eps=1e-05, elementwise_affine=True)
  (head): Linear(in_features=128, out_features=101, bias=False)
)>
state_dict True <bound method Module.state_dict of Decoder(
  (token_embeddings): Embedding(101, 128)
  (position_embeddings): Embedding(5, 128)
  (layers): ModuleList(
    (0-1): 2 x Block(
      (ln_1): LayerNorm((128,), eps=1e-05, elementwise_affine=True)
      (ln_2): LayerNorm((128,), eps=1e-05, elementwise_affine=True)
      (attn): MultiheadAttention(
        (out_proj): NonDynamicallyQuantizableLinear(in_features=128, out_features=128, bias=True)
      )
      (mlp): Sequential(
        (0): Linear(in_features=128, out_features=512, bias=True)
        (1): GELU(approximate='none')
        (2): Linear(in_features=512, out_features=128, bias=True)
      )
    )
  )
  (ln_f): LayerNorm((128,), eps=1e-05, elementwise_affine=True)
  (head): Linear(in_features=128, out_features=101, bias=False)
)>
to True <bound method Module.to of Decoder(
  (token_embeddings): Embedding(101, 128)
  (position_embeddings): Embedding(5, 128)
  (layers): ModuleList(
    (0-1): 2 x Block(
      (ln_1): LayerNorm((128,), eps=1e-05, elementwise_affine=True)
      (ln_2): LayerNorm((128,), eps=1e-05, elementwise_affine=True)
      (attn): MultiheadAttention(
        (out_proj): NonDynamicallyQuantizableLinear(in_features=128, out_features=128, bias=True)
      )
      (mlp): Sequential(
        (0): Linear(in_features=128, out_features=512, bias=True)
        (1): GELU(approximate='none')
        (2): Linear(in_features=512, out_features=128, bias=True)
      )
    )
  )
  (ln_f): LayerNorm((128,), eps=1e-05, elementwise_affine=True)
  (head): Linear(in_features=128, out_features=101, bias=False)
)>
to_empty True <bound method Module.to_empty of Decoder(
  (token_embeddings): Embedding(101, 128)
  (position_embeddings): Embedding(5, 128)
  (layers): ModuleList(
    (0-1): 2 x Block(
      (ln_1): LayerNorm((128,), eps=1e-05, elementwise_affine=True)
      (ln_2): LayerNorm((128,), eps=1e-05, elementwise_affine=True)
      (attn): MultiheadAttention(
        (out_proj): NonDynamicallyQuantizableLinear(in_features=128, out_features=128, bias=True)
      )
      (mlp): Sequential(
        (0): Linear(in_features=128, out_features=512, bias=True)
        (1): GELU(approximate='none')
        (2): Linear(in_features=512, out_features=128, bias=True)
      )
    )
  )
  (ln_f): LayerNorm((128,), eps=1e-05, elementwise_affine=True)
  (head): Linear(in_features=128, out_features=101, bias=False)
)>
token_embeddings False Embedding(101, 128)
train True <bound method Module.train of Decoder(
  (token_embeddings): Embedding(101, 128)
  (position_embeddings): Embedding(5, 128)
  (layers): ModuleList(
    (0-1): 2 x Block(
      (ln_1): LayerNorm((128,), eps=1e-05, elementwise_affine=True)
      (ln_2): LayerNorm((128,), eps=1e-05, elementwise_affine=True)
      (attn): MultiheadAttention(
        (out_proj): NonDynamicallyQuantizableLinear(in_features=128, out_features=128, bias=True)
      )
      (mlp): Sequential(
        (0): Linear(in_features=128, out_features=512, bias=True)
        (1): GELU(approximate='none')
        (2): Linear(in_features=512, out_features=128, bias=True)
      )
    )
  )
  (ln_f): LayerNorm((128,), eps=1e-05, elementwise_affine=True)
  (head): Linear(in_features=128, out_features=101, bias=False)
)>
training False True
type True <bound method Module.type of Decoder(
  (token_embeddings): Embedding(101, 128)
  (position_embeddings): Embedding(5, 128)
  (layers): ModuleList(
    (0-1): 2 x Block(
      (ln_1): LayerNorm((128,), eps=1e-05, elementwise_affine=True)
      (ln_2): LayerNorm((128,), eps=1e-05, elementwise_affine=True)
      (attn): MultiheadAttention(
        (out_proj): NonDynamicallyQuantizableLinear(in_features=128, out_features=128, bias=True)
      )
      (mlp): Sequential(
        (0): Linear(in_features=128, out_features=512, bias=True)
        (1): GELU(approximate='none')
        (2): Linear(in_features=512, out_features=128, bias=True)
      )
    )
  )
  (ln_f): LayerNorm((128,), eps=1e-05, elementwise_affine=True)
  (head): Linear(in_features=128, out_features=101, bias=False)
)>
xpu True <bound method Module.xpu of Decoder(
  (token_embeddings): Embedding(101, 128)
  (position_embeddings): Embedding(5, 128)
  (layers): ModuleList(
    (0-1): 2 x Block(
      (ln_1): LayerNorm((128,), eps=1e-05, elementwise_affine=True)
      (ln_2): LayerNorm((128,), eps=1e-05, elementwise_affine=True)
      (attn): MultiheadAttention(
        (out_proj): NonDynamicallyQuantizableLinear(in_features=128, out_features=128, bias=True)
      )
      (mlp): Sequential(
        (0): Linear(in_features=128, out_features=512, bias=True)
        (1): GELU(approximate='none')
        (2): Linear(in_features=512, out_features=128, bias=True)
      )
    )
  )
  (ln_f): LayerNorm((128,), eps=1e-05, elementwise_affine=True)
  (head): Linear(in_features=128, out_features=101, bias=False)
)>
zero_grad True <bound method Module.zero_grad of Decoder(
  (token_embeddings): Embedding(101, 128)
  (position_embeddings): Embedding(5, 128)
  (layers): ModuleList(
    (0-1): 2 x Block(
      (ln_1): LayerNorm((128,), eps=1e-05, elementwise_affine=True)
      (ln_2): LayerNorm((128,), eps=1e-05, elementwise_affine=True)
      (attn): MultiheadAttention(
        (out_proj): NonDynamicallyQuantizableLinear(in_features=128, out_features=128, bias=True)
      )
      (mlp): Sequential(
        (0): Linear(in_features=128, out_features=512, bias=True)
        (1): GELU(approximate='none')
        (2): Linear(in_features=512, out_features=128, bias=True)
      )
    )
  )
  (ln_f): LayerNorm((128,), eps=1e-05, elementwise_affine=True)
  (head): Linear(in_features=128, out_features=101, bias=False)
)>
T_destination False False
__annotations__ False False
__call__ True False
__class__ False False
__delattr__ True False
__dict__ False False
__dir__ True False
__doc__ False False
__eq__ False False
__format__ False False
__ge__ False False
__getattr__ True False
__getattribute__ False False
__getstate__ True False
__gt__ False False
__hash__ False False
…
